checkpoint.pth (torch, 22191 bytes, 6 tensors)

fc1.weight f4 [64, 8]
00000000: 9f58 86bd da05 f1be 913e 163e 22c6 2bbf
00000010: f3ba a4be 259f 053c 43dd 85be cb27 013e
00000020: a075 d4b9 5e0e c53d 0222 3abe 628f bbbd
00000030: d13f 22be 2935 72bf 8111 6bbf 0ef0 aabd
00000040: 3913 50be a697 bdbf 81a7 123f 2c8c 6c3e
00000050: 0814 7c3f f7e3 cf3e 10bf 203e 72a5 043f
00000060: d478 e13d 3780 bdbe ed11 663f aed3 a0bd
00000070: 5c87 8cbf 2331 a2be 8ec0 3ebe 7557 c23e
00000080: 13e2 69be 98a3 acbe 49ae 78bf 5d2f 07bf
00000090: ad13 c13e 9a6b a43e 05e1 193e 53b7 463e
000000a0: ebc0 08be fa6e 17bf 698d 013f a493 e6be
000000b0: accc 1bbf 8d17 debe c9ed ce3e 70a5 3ebc
000000c0: 11ed f43c b0c3 353f f71c 6b3e 8f1d ca3f
000000d0: 1a7b 7fbe 1f08 db3f 6d83 033f 51b1 16bf
000000e0: 8b04 b63d a312 3ebf 1aa8 51bf 782a 8d3e
000000f0: dc20 8d3f a946 cd3e 43e9 49be 800d 913e
00000100: 0eb1 1d3e 2926 393e 48f2 583e bd9b 63be
00000110: a10b 2b3d 5d37 c53e f771 63bf c561 31be
00000120: bbef d5bc 2ae4 7f3f 5f02 9a3e 86e2 c53f
00000130: e50e 10bf b7e4 c0bd 28e0 da3d 9192 d8bd
00000140: b3f4 d0be a7eb 293f 860f 433f 0048 c7bf
00000150: 61a9 63bc 15c7 4dbc bfd7 27bd e47f 5abc
00000160: e3cf a23e 9f3b f6bd aebe 9ebe aedb 2cbe
00000170: 9fb0 603f 27fd 8d3e 6a74 cebe d922 9cbe
00000180: 997e 343e d6b3 d13d e4b8 febe 6ee7 d8bd
00000190: 8eb6 e03f 82ee cd3c 08e9 a33e 8fe8 613e
000001a0: 8d7b 90bf 59fb e6be 7526 23bf 8de3 26bf
000001b0: f335 86be 0ee9 93bb 7067 7abe 8040 da3c
000001c0: 30d8 75be ca28 cc3e 020a 413f e1e7 88bf
000001d0: 2d03 8bbe c4c0 dc3c ccdf d13d 46b6 933d
000001e0: 2f35 f33e 155c 6fbd 10f8 23be 273f aa3e
000001f0: c7ee 51be d0f5 38bf 046f fbbe 427f 82bf
00000200: 9592 6cbe b74d 45bf 9c00 913e 8c73 bfbe
00000210: 036e 0bbf a3ce 9bbe 5b45 ea3e 506c 71be
00000220: 7b10 dfbe a6a0 1b3e abe5 c03e 725c d2bc
00000230: 2f37 113b eca8 463f ef2e b23d 5a47 2dbf
00000240: e269 11be 98c6 613e 520c 7e3e 0026 65be
00000250: 5dc3 36bf 0032 3bbe 54bd e33d d202 41bf
00000260: 0817 41be 1800 e03e 9144 2a3f d41d 9abf
00000270: 3abf b03e c17e 87be 4a29 3b3e 8f3e 523c
00000280: 835c 06bf 5435 36be fd6f 003f 9c95 fabe
00000290: abc4 00bf cc8b 09bf f8c7 31bf 7a4a 993d
000002a0: 3aa2 56bf 487e eabe a687 963d ea85 793e
000002b0: 0f1e 313f 1ca1 763e 3791 7bbe c75a 063f
000002c0: 8d48 1a3f 3b5a 84bf 5698 6a3f 48da 65be
000002d0: 8bdc 0abf 2c30 88be 5df4 a93e e51b 4d3d
000002e0: 56b3 013f 6eba 17bf 495d d13e 6b95 833e
000002f0: 61b5 b4be 0339 f53a 3a8b e83e 54ba 9e3e
00000300: 6b3c 8bbf e457 cbbe 210e 2abf 29bf 0fbf
00000310: 3124 a7be 9436 b33d fe5b c2bd 6832 80be
00000320: fbb5 923e 582d 033c ed86 bcbe 88b7 833e
00000330: 3cd9 123f 8a25 f13e 05ee 863d f955 e83e
00000340: 33a0 fb3e d8f0 70be 7d35 e83e db96 973e
00000350: c7de f4bd fec1 65be f9b6 213e f6a0 3d3e
00000360: 92ad 02be f540 5fbf 6ef1 98be df6e dcbe
00000370: 307d af3e 3d24 993e 833a 163d 7987 c33d
00000380: 93bc 2abf 53cf 103e a3cc 783e 4a9d 373e
00000390: ac1a 5abe 3eff 1bbf e826 fabd e75f 923e
000003a0: a94b 1f3e 8a07 d03e c4e9 113f a345 80bf
000003b0: 0f6b e03e 6a47 d8be de21 c13d 294e 9f3e
000003c0: 14a0 c7be 1201 0b3f 9510 1f3f 4f32 afbc
000003d0: 65c1 893f e10a a1bf 9153 813e 690e e9be
000003e0: 58c5 b23e 4f34 bd3d df3e a0bf 9c93 dc3e
000003f0: 3304 bb3f 6302 c23d e333 42be 7435 c4bd
-0.06559872 -0.47074777 0.14672305 -0.670992 -0.3217388 0.008155619 -0.26145372 0.12612836
-0.00040523428 0.09621881 -0.18177035 -0.091582075 -0.15844657 -0.94612366 -0.91823584 -0.08346568
-0.20319833 -1.4811904 0.5728684 0.23100346 0.98468065 0.4060361 0.15697885 0.5181495
0.11009374 -0.37011883 0.898711 -0.07852875 -1.0978808 -0.31678113 -0.18628141 0.3795735
-0.22840147 -0.33718562 -0.9714094 -0.52806646 0.37710324 0.32113343 0.15027244 0.1940587
-0.13354842 -0.5915371 0.506064 -0.45034516 -0.6085918 -0.43377343 0.4041579 -0.011636123
0.029898198 0.7100172 0.22960268 1.579027 -0.24949303 1.7111853 0.51372415 -0.58864313
0.08887585 -0.7424719 -0.8189713 0.27571464 1.1025653 0.40092972 -0.19717889 0.28330612
0.15399572 0.18080963 0.21186173 -0.22227378 0.041759137 0.385188 -0.8884577 -0.17322452
-0.026115289 0.99957526 0.30079934 1.5459754 -0.5627273 -0.09418624 0.10687286 -0.1057483
-0.4081169 0.663752 0.7619556 -1.5568848 -0.013895364 -0.012559672 -0.040977236 -0.013336156
0.3179923 -0.120230906 -0.31004852 -0.16880676 0.877695 0.27732202 -0.40323192 -0.30495337
0.17626418 0.10239379 -0.49750435 -0.10591017 1.7555711 0.025138143 0.32013726 0.2206137
-1.1287705 -0.45113638 -0.63730556 -0.65190965 -0.26213035 -0.0045138663 -0.24453521 0.026642084
-0.2400825 0.3987487 0.75405896 -1.0695764 -0.2715086 0.026947387 0.10247764 0.072125
0.47501513 -0.058437426 -0.16012597 0.33251306 -0.20501243 -0.7225008 -0.49108136 -1.0195086
-0.23102792 -0.7707171 0.28320777 -0.37392843 -0.5446474 -0.3043109 0.4575604 -0.23576474
-0.4356726 0.15198001 0.37675223 -0.025678847 0.0022158136 0.77601504 0.08700358 -0.67687
-0.14200547 0.22048414 0.24809387 -0.22377777 -0.7139185 -0.18280792 0.11120096 -0.7539493
-0.18856442 0.43750072 0.66510874 -1.2040353 0.34520894 -0.26463893 0.1827747 0.012832298
-0.5248491 -0.1779378 0.5017088 -0.48942268 -0.5030009 -0.5372894 -0.69445753 0.074849084
-0.8384129 -0.4579947 0.07350092 0.2436749 0.6918649 0.24084896 -0.24567114 0.52482265
0.60266954 -1.0340036 0.91638696 -0.22446549 -0.5424277 -0.26599252 0.33194247 0.05007543
0.5066427 -0.59268844 0.40891483 0.25699934 -0.3529463 0.0018709007 0.4541872 0.31001532
-1.0877813 -0.39715493 -0.6642781 -0.5615106 -0.326448 0.08750644 -0.09490202 -0.25038457
0.28654465 0.008006416 -0.3682169 0.2572596 0.57362723 0.47098953 0.065883674 0.45378092
0.4914566 -0.23529375 0.45353308 0.2960728 -0.11956554 -0.22437283 0.15792455 0.18518433
-0.12761524 -0.8720849 -0.29871696 -0.43053338 0.34275198 0.2991046 0.036676895 0.09547324
-0.6669399 0.14141588 0.24296813 0.17931095 -0.21299237 -0.60936344 -0.12214452 0.28588793
0.15556206 0.40630752 0.56997323 -1.0021251 0.4383168 -0.42241985 0.09430288 0.3111432
-0.38989317 0.5429851 0.6213468 -0.021386294 1.0762144 -1.2581445 0.2525907 -0.45518807
0.34916186 0.09238493 -1.2519187 0.43081367 1.4610656 0.094731115 -0.18965106 -0.09580508

fc1.bias f4 [64]
00000000: c77c c7be b16a 0fbd a35c 203c 36af 3ebe
00000010: df7d 17be 4d4b 4abe b6a1 ac3e 9077 e2bd
00000020: 251a 493e 3225 8f3e 3453 243f 9890 1abe
00000030: c1f3 11be 8b34 f3bd efe9 213f 391e 0dbf
00000040: b344 f7bd 8672 cebe 0748 ef3e 0199 4e3f
00000050: 221b d8be 94a2 a1be e42b c4be 2ae0 a6be
00000060: 5791 36bd 4caf 54be 802a 7abd f648 ab3d
00000070: bafb e1be b2ba b73e 267b aabd e9fa 09bd
00000080: a44f 12be e119 ab3e 40e9 88be dda5 923e
00000090: 78d6 bc3e 16af 223e 97be abbe d866 a6be
000000a0: e24f d33e aad5 08bf f922 cdbc 9b46 193b
000000b0: 1070 cebd a377 5a3d 6d59 2f3f 8ced e73d
000000c0: 96c9 053e 1d96 9cbe acdf df3d 37fa 323e
000000d0: df89 c73d 7973 173e 17d4 453d 1c91 b3bd
000000e0: 849d 8a3e caf2 c83d bc4d 043e 1f4c 883e
000000f0: 615e a2bd 6d35 59be a03a 83bd bb04 483e
-0.38962385 -0.03501386 0.009787711 -0.18621525 -0.1479411 -0.19755287 0.33717126 -0.11057961
0.1963888 0.27958065 0.6418946 -0.1509422 -0.14253141 -0.11875256 0.6324758 -0.5512424
-0.1207365 -0.4032175 0.4673464 0.80702215 -0.422082 -0.3156935 -0.38314736 -0.325929
-0.0445722 -0.20769995 -0.061075687 0.083635256 -0.44137365 0.35884625 -0.0832427 -0.033686552
-0.14288193 0.33418182 -0.26740456 0.2864217 0.36882377 0.15887102 -0.33543846 -0.3250034
0.41271883 -0.53451025 -0.02504109 0.0023388031 -0.10079968 0.05333675 0.6849583 0.11324605
0.1306518 -0.30583277 0.10931334 0.17478262 0.09743094 0.14790143 0.048297968 -0.08767912
0.270733 0.09811933 0.12920278 0.26620576 -0.079281576 -0.21211787 -0.06407666 0.19533055

fc2.weight f4 [64, 64]
00000000: e5ec 803e b2b3 bdbd 7eb7 223e c3ce 063f
00000010: a927 a2bd 3013 34bd 3704 10be 2309 233e
00000020: 6e18 4abe 2896 f93e adef 033e 8e3c bc3e
00000030: 70cd 8cbe 5594 773e 6776 a03d 0c25 223e
00000040: 4015 c5bd da32 b53e f31b ac3d c516 c03d
00000050: 2227 d33e ce15 093f 685a 333f f36a ac3e
00000060: 39e3 473e 8405 1d3d a57d 18bc 4b98 9f3c
00000070: 2dad db3d 001d 78bd 077e f9be ff9a 40bf
00000080: 2544 afbd 1932 d03d 38fe fb3d 8836 353e
00000090: 2b37 143f aec3 ecbd 309d 353d eef3 6a3f
000000a0: 60c3 b53e 65ad 713d 6364 363e c95b 25bd
000000b0: 16e0 0ebf bdd3 8e3e 6738 033d fad4 773d
000000c0: 4433 3c3f 55a5 5f3f 6d98 c03e b5b8 16be
000000d0: 67f3 a0bf a283 6cbd 835b 153e 4f1b f4bf
000000e0: a93f 103e 9e4d 9d3d 8e50 e63d ed94 59be
000000f0: a36e 243d cbae 63bd f9b3 34bc 0c92 b93d
00000100: 880a 7a3e be88 363e 6b49 263e 5be8 b43e
00000110: 0206 09be 53b1 3b3e b446 c1be 7d61 813e
00000120: b4be edbd 2140 0a3f bfef 8f3e 29b4 d53e
00000130: 467f a7be a2d3 343e 910a 8d3d e4a3 b93e
00000140: 0478 4a3d d192 e33d 0a23 923d b1d3 4e3e
00000150: 41ee 013f e336 ca3e 5149 363f 64be 243e
00000160: da10 cf3e 8079 563e 09ae 1d3e 6ed6 02bd
00000170: 2fc1 2c3e abe1 5a3e fb7f 0dbf 1ef1 2bbf
00000180: 52fd 8abb a0f7 583e cf71 163e 21e5 b73e
00000190: 581e c43e 3217 d8bb ca4f af3d a645 773f
000001a0: 0618 b83e 5244 37bd 616a 5b3c 7e16 08bc
000001b0: 5ace c2be ccf5 303d daba 7cbd 932f e53d
000001c0: 2898 b53e 5769 893f 653c 8a3e df16 e4bc
000001d0: f52f 81bf 3a5e 893d 362f 083e 3533 ffbf
000001e0: 8d09 643e 76f2 ac3d 033f a43d c723 25be
000001f0: 9f5a cdbd 1b83 1e3d 8a59 1cbd 5273 e63d
00000200: 7cee 863e e610 f03e 5538 fc3d bf3e 2e3f
00000210: 5898 02bd f493 853e af27 e0be 69f3 2f3f
00000220: 55a5 22bf caad a13e 9fa0 5c3e 150e 9938
00000230: a842 333e 525c e33e 5062 3d3e 2b91 b83e
00000240: 8410 a03e 17e3 aebe 30de 173d 93af df3c
00000250: 2f39 f53e d108 1d3f 7313 4e3f d049 2c3e
00000260: b41e 103f e06d a0bc 2261 393e 58cd f83d
00000270: d8a2 8b3e 08da ec3d 0bed f4bd 940c 483f
00000280: 5e28 f6bc 3d2a 30be 6b2d ec3e cf26 373e
00000290: 92e0 013e 9325 e03d ccf7 ca3d ecab 573f
000002a0: 46b7 073e 9ac5 003e 5ed4 8c3e c68c dfbe
000002b0: 90c6 bebf 2374 12be 44b3 c3be 74c4 253e
000002c0: 3dc8 173f 49fe 873f bf98 033f ff9f 50be
000002d0: 7a02 7dbf bc36 343e 3ed8 3b3e 627c 72bf
000002e0: 8da3 2a3e 2d5e 073f b99a c53b 08dd 8f3e
000002f0: ae5b d63d 61ff 473e a91c 213e 31a0 603e
00000300: f36b 933e a23c f63d 4c89 45bf 5cc2 053e
00000310: 5091 8b3e eaee 783e fb44 08bd 4ab9 01bf
00000320: 74b7 cb3e 7d4a 203e a558 0b3f eaca a73e
00000330: fd5e 36bf 1520 b73e 10be 8c3e 984d 20bf
00000340: f110 9e3d 6306 e23e 6f40 59b9 ba17 a93d
00000350: 1a44 843e 911d 2e3e 80ca 623e fac1 403e
00000360: 9c64 103f cbf8 a9bd 7089 0b3d db10 fcbe
00000370: 14a7 40be 6b9b a83d 4034 bfbf daf7 42bf
00000380: 0e9e 57be 897c d0bc 4c68 cf3e be51 a13d
00000390: d31d 9d3e 308a 413e 0690 fe3d 4359 133f
000003a0: 4701 423e 3aea 4ebe 0635 6dbf a432 c83e
000003b0: a3a4 fb3d fc91 1c3e db77 8d3d 806f c33e
000003c0: 76aa b0be c776 85bf 815d 10bf 5a93 173e
000003d0: 9703 05c0 b247 903d 1d2c 1e3e daa9 b6bf
000003e0: 92f0 b9be 00fd 2c3d a726 223d f902 fbbe
000003f0: fd63 c6bd 8657 0cbd 4bcd d83c 593e 39be
0.25180736 -0.0926279 0.15890309 0.52659243 -0.07917721 -0.04396361 -0.14064108 0.15921454
-0.19735882 0.48747373 0.12884398 0.3676495 -0.27500486 0.24177678 0.078350835 0.15834445
-0.09623194 0.3539036 0.084037684 0.09379343 0.41240793 0.53548896 0.70059824 0.33675346
0.19520272 0.03833534 -0.0093073 0.019481799 0.1072639 -0.06057453 -0.48728964 -0.75236505
-0.085579194 0.10165805 0.12304348 0.17696583 0.5789668 -0.115607604 0.04433936 0.9177846
0.35500622 0.059003253 0.17811732 -0.040370736 -0.5581068 0.27895918 0.03203621 0.060505845
0.73515725 0.8736165 0.37616292 -0.14718898 -1.257428 -0.057742722 0.1458569 -1.9070834
0.14086784 0.0768082 0.11245833 -0.21248217 0.040144574 -0.055586617 -0.011029237 0.09061059
0.2441808 0.178256 0.16238944 0.35333523 -0.13381198 0.18329363 -0.37749255 0.2526969
-0.11608639 0.540041 0.281126 0.41739014 -0.3271429 0.17658857 0.06886781 0.3625785
0.049430862 0.111119874 0.071355894 0.20197941 0.5075417 0.39495 0.7120562 0.16088253
0.40442544 0.20944786 0.1539842 -0.031942777 0.16870569 0.21375148 -0.5527341 -0.6716479
-0.004241624 0.21188211 0.14691852 0.35917 0.383044 -0.006594562 0.085601404 0.9659065
0.35955828 -0.04474289 0.013392062 -0.008306144 -0.3804806 0.04320316 -0.061701633 0.11190715
0.35467649 1.0735272 0.26999202 -0.027842937 -1.009276 0.067074254 0.1329926 -1.9937502
0.22269268 0.08444683 0.08019831 -0.16126929 -0.1002705 0.03869925 -0.03817133 0.11252464
0.26353824 0.46887892 0.12315432 0.6806449 -0.031883568 0.26089442 -0.43780276 0.6873079
-0.63533527 0.31577903 0.21545647 7.2982315e-05 0.17505896 0.44406372 0.18494534 0.36048254
0.312626 -0.3415763 0.03707713 0.0273054 0.4789519 0.6134158 0.8049843 0.16825032
0.5629685 -0.019583642 0.1810346 0.12148541 0.27272677 0.11565024 -0.11959275 0.7814419
-0.030048545 -0.17203613 0.461284 0.17885898 0.12683323 0.10944667 0.09910545 0.84246707
0.13253507 0.12575379 0.27505773 -0.4366209 -1.4904346 -0.14302115 -0.38222706 0.16188222
0.59289914 1.0624477 0.5140495 -0.20373534 -0.98831904 0.17599005 0.18344209 -0.94721043
0.16663952 0.52878076 0.0060304073 0.2809832 0.10466705 0.19531013 0.15733589 0.21936108
0.28793296 0.120232835 -0.77162623 0.13062423 0.27259302 0.24309888 -0.03326891 -0.50673354
0.397884 0.15653415 0.54432136 0.32772 -0.7123869 0.35766664 0.27488756 -0.626184
0.07718075 0.44145498 -0.00020718736 0.082564786 0.25833207 0.17003466 0.2214756 0.18823996
0.5640352 -0.082994066 0.034066617 -0.4923161 -0.18813735 0.082327686 -1.493782 -0.7615944
-0.21056387 -0.025450008 0.4050926 0.07876919 0.30686817 0.1890037 0.12429814 0.5755808
0.189458 -0.20206538 -0.9265903 0.39101136 0.12287261 0.15290064 0.06907626 0.38171005
-0.3450505 -1.0426873 -0.56392676 0.14802304 -2.078344 0.07044925 0.15446515 -1.4270585
-0.36316353 0.042233467 0.039587643 -0.49025705 -0.0968704 -0.034263156 0.026465079 -0.1809019

fc2.bias f4 [64]
00000000: 1cc3 8f3d 9824 d73c f6dd cfbd 2c7d 3c3e
00000010: 7abc 663e 799c 113e 26c5 053e 8ddc 863d
00000020: 194b aa3c 7332 e2bd 561d 113e f9d4 323b
00000030: 025c bb38 e2d7 123e ff4c 9e3e add1 1d3f
00000040: ee98 8a3e 45df 313d 5f0d ed3d 6402 6d3e
00000050: f113 003e c77e 23bd 441b 583d fdf1 e9bd
00000060: 8b95 f53d adec b03e d579 90be f0f6 d7bc
00000070: 66b3 7e3e c033 383d 5f48 ea3d 3e67 1a3e
00000080: b933 b13d 467b 493e f657 f93d f2ea c2bd
00000090: 35cc e23d 5e65 5f3e c9f8 273e 9c4d 9b3e
000000a0: d0a6 703e d758 b7bd 1878 7bbe 1884 ce3e
000000b0: ca67 59be e87b c83d 61e5 df3d 0664 c53d
000000c0: 0147 563e cd6f 9e3c 9260 413e 4d8d cebd
000000d0: 19a6 8e3e 46f4 a63d ea56 093f 33b2 4e3e
000000e0: 2e22 ec3d 0360 5d3e 70e9 9bbe 0054 293e
000000f0: 013b 353d 175b bb3c 5d0e 8d3e cf34 613e
0.07019636 0.026262566 -0.101497576 0.18407124 0.22532836 0.14219846 0.13063487 0.065850355
0.020787762 -0.11044779 0.14171347 0.0027287586 8.933993e-05 0.14340165 0.30918118 0.61648065
0.270698 0.043425817 0.11574816 0.23145443 0.12507607 -0.039915826 0.052760378 -0.11423109
0.11991414 0.3455557 -0.2821795 -0.026362866 0.24873123 0.044971228 0.11439585 0.15078446
0.086524434 0.19675931 0.1217498 -0.095174685 0.11074106 0.21816012 0.16403498 0.3033265
0.23501134 -0.08952492 -0.24557531 0.40335155 -0.21230999 0.09789258 0.109324224 0.096382186
0.20925523 0.01934042 0.18884495 -0.10085545 0.27861097 0.0815206 0.53648245 0.20185165
0.11529957 0.21618657 -0.30451536 0.1653595 0.044245724 0.022870583 0.2755002 0.21992801

fc3.weight f4 [4, 64]
00000000: 2c28 afbe 8ed9 97be 0381 f3be 23b1 a7bf
00000010: 7ebd 8bbe 0eae afbe f810 c93f 6c7b 9ebe
00000020: 887c a6bd 05e3 b73c 7bc2 d2be ceaa 8ebf
00000030: 4af6 a9be 151b bfbe d97f 843f 0e40 ae3f
00000040: 3bdd 59bf 16e3 63be 2691 a7be a294 9fbe
00000050: 4e09 a8be 6ee9 273d a822 53be e02d 3bbc
00000060: bdb6 aebe 7734 a23f 2c67 dbbe a389 aabe
00000070: c27b cebe 6b89 dfbe b406 e2be 3251 5a40
00000080: 8b8e b8be 0647 98be 36cf 8cbe c815 4c3f
00000090: 6da6 84be 86a5 74be 92f8 2440 2e88 9b3e
000000a0: 02e6 8dbe f0f8 9c3d 1ab6 96bd 4537 973f
000000b0: 4756 ff3b ccf3 05bd 2523 513f a5fc 98be
000000c0: 2a25 cebe fb81 27bf ca89 a0be 5be1 89be
000000d0: d144 a1be cc94 82be c290 f9bf 9c62 11bf
000000e0: 49ff c3be 52d7 c3be f44c 363f 9e07 b2be
000000f0: 1fbd d2be b7c7 9cbe 522a a13f 8e03 c8be
00000100: c9e9 6fbe 692a a7be 0bd1 4fbe fb5f 59bf
00000110: c30f a0be 4208 abbe b185 ab3f 01cc 13bf
00000120: 2afc e33d f50a c4bd 6ee5 87be b12c a7be
00000130: fc60 0dbe dcdf a7be 2d96 7b3f 31e3 8e3f
00000140: fb64 b1bf 3590 bdbe f463 9fbe 5492 bcbe
00000150: 7938 8abe afb2 e83d 7020 a3be 4012 7abd
00000160: e0e4 b5be c513 843f ad0c cfbe a567 99be
00000170: cfde babe 318c b8be fd67 e1be d962 4e40
00000180: 3da1 4cbe e86c cfbe bea4 a0be 10f8 733f
00000190: 23cc e5be 9ca6 c3be 8d8c 3840 194f 513f
000001a0: 493c e0be 5e75 a4bd 9d97 01bf fb82 cd3f
000001b0: 618f 00bf 601a 2f3c 23f4 b13e 4ddb bbbe
000001c0: f0aa a2be 9031 2abf 72ed aebe 2355 68be
000001d0: d905 b1be 8d41 cebe bebf 03c0 2a0f 883e
000001e0: 1b2d a8be c1d9 92be 9cdb 5b3f 4eb7 c4be
000001f0: 548b b0be 3dbd 86be 9809 d33f 6e38 94be
00000200: b24e edbe b071 ecbe 2cfb dc3d 8bc1 20bf
00000210: f741 95bc f8f2 10be e48e 2040 fbab 933c
00000220: 567c cf3d 2968 6d3d c9fd aabe 126f 64bd
00000230: be83 c9be 93d6 8bbe edf1 4d3f d75e 813f
00000240: cb4d f53d d6b5 59bf 5a48 01bf 5e84 b0be
00000250: 995c c6bd 565f a73d 67c4 e5be 8664 2abc
00000260: fcaa 71be 92ca 643f 10fc 3fbf e272 44bf
00000270: 9e13 82be 6e53 803e 84c7 5abd cd82 0040
00000280: 12e4 b9be 7b28 b5be 5e6e 73be 352e 733e
00000290: 7026 b1be fa9c a0be a67a 1d40 6b50 f8bd
000002a0: 74e9 c7be 51d7 90bd 6aed 72bf 1dce aa3f
000002b0: 7286 c1be c0fa 4dbb 8720 b63e 2fbb 13bf
000002c0: 8c33 59be 66cf 51bf 0e1b b0be 744a 2fbf
000002d0: f1a1 f7be d2e4 37bf e89e 5b3f 5d59 9a3f
000002e0: 6bbd 9fbd 87a8 d4be 44fb c73f 1142 17be
000002f0: 89e2 25be 0bfb 8bbe 6cd8 b13f 8b61 a2be
00000300: 3548 b3be 7513 85be f922 90bd 9c59 92bf
00000310: f83a bdbe 056c adbe 21c6 0f40 06aa 1abe
00000320: 5047 933c 072c 7abc 184a c9be c392 5abf
00000330: ba69 04bf c53e cfbe 8ac8 7f3f bf39 8f3f
00000340: da9f b43e a646 12be 62ca 74be 9089 b8be
00000350: b151 eebe 34d5 afbd 233a 91be b3ea aa3c
00000360: de90 90be 14fd 8b3f 8291 2abf b706 dabe
00000370: 743a babe 33b1 bbbe 69ea 3b3e 422c 6540
00000380: 8f0c c2be d2c8 4fbe c9bb d9be 922b f2bd
00000390: b156 3cbe 0529 bdbe 5429 b43f d39a a4bd
000003a0: 6674 a8be 2c05 943c bacf 1dbe fbab 723f
000003b0: be5c b43e 9064 f3bd 7fc4 9b3f 3ff4 b8be
000003c0: 54c9 adbe a45e acbe 3708 debe e790 acbe
000003d0: 7136 8bbe 2a9c d1bd b8be d0bf e2d9 10bf
000003e0: 3c3f 5cbe b4eb f5be 14d7 5f3f 0d0f babe
000003f0: 2563 adbe c240 02bf 7e39 ac3f c114 a0be
-0.34210336 -0.2965817 -0.47559366 -1.3100933 -0.2729301 -0.3431248 1.5708303 -0.30953538
-0.08129221 0.022447119 -0.41164002 -1.1145875 -0.33195716 -0.3732535 1.0351516 1.3613298
-0.85103196 -0.22254595 -0.32727927 -0.31168085 -0.328196 0.0409941 -0.20618689 -0.011424512
-0.34123793 1.2672261 -0.4285215 -0.33308133 -0.40328795 -0.4365953 -0.4414574 3.4112058
-0.36046252 -0.29741687 -0.2750184 0.79720736 -0.25908223 -0.23891267 2.5776715 0.30377334
-0.27714545 0.076646686 -0.07358952 1.1813742 0.0077922675 -0.032703206 0.8169425 -0.29880252
-0.4026273 -0.6543271 -0.31355125 -0.26929745 -0.31497815 -0.25504148 -1.9497302 -0.5679109
-0.38280705 -0.38250214 0.7121117 -0.34771436 -0.41159913 -0.3062112 1.259104 -0.39065212
-0.23429026 -0.32649544 -0.20294587 -0.8491208 -0.31262025 -0.33404738 1.3400174 -0.5773316
0.11132081 -0.095724024 -0.26542228 -0.32651284 -0.13806528 -0.3278798 0.98276025 1.1163083
-1.3858942 -0.37024084 -0.31130946 -0.3683039 -0.2699621 0.11362206 -0.31860685 -0.06105256
-0.3552618 1.0318533 -0.40439358 -0.29961887 -0.36498114 -0.36044458 -0.4402465 3.2247832
-0.19983383 -0.40512776 -0.31375688 0.9530039 -0.44882306 -0.3821305 2.8835785 0.8176132
-0.43795994 -0.080301985 -0.5062197 1.6055597 -0.5021878 0.010687441 0.34756574 -0.3669075
-0.3177104 -0.66481876 -0.3416553 -0.22688727 -0.34574774 -0.40284386 -2.058578 0.2657407
-0.32846913 -0.28681758 0.8588197 -0.384211 -0.344813 -0.26316252 1.6487303 -0.28949302
-0.46349102 -0.46180487 0.10790095 -0.62795323 -0.018219931 -0.14155185 2.5087214 0.018026343
0.10131137 0.057960663 -0.33396748 -0.055769987 -0.39358324 -0.27312145 0.80447274 1.0107068
0.119777285 -0.85043085 -0.50501025 -0.34475988 -0.0968563 0.08172481 -0.44876406 -0.010399943
-0.23600382 0.893716 -0.7499399 -0.767378 -0.25405592 0.25063652 -0.05341293 2.0079834
-0.36306816 -0.35382447 -0.2377257 0.23748095 -0.34599638 -0.31369764 2.4606109 -0.121247135
-0.39045298 -0.07072318 -0.94893515 1.3344151 -0.37797886 -0.0031429976 0.3557169 -0.57707494
-0.2121107 -0.8195709 -0.3439564 -0.6847298 -0.4836574 -0.7183353 0.85789347 1.2058522
-0.077998005 -0.41534826 1.5623555 -0.14771296 -0.16199698 -0.27339968 1.3894172 -0.31715044
-0.35016027 -0.25991407 -0.070379205 -1.1433597 -0.36959052 -0.33871475 2.2464678 -0.15103921
0.01797834 -0.015269286 -0.39314342 -0.8538019 -0.51723826 -0.40477577 0.99915373 1.1189498
0.35278207 -0.14284763 -0.23905328 -0.36042452 -0.465467 -0.08585587 -0.28364667 0.020863866
-0.28235525 1.0936608 -0.6662828 -0.42583248 -0.3637272 -0.3665863 0.18351139 3.5808263
-0.37900206 -0.2029145 -0.4252608 -0.11824717 -0.18392445 -0.36945358 1.4075112 -0.08037343
-0.32901305 0.018068872 -0.15411273 0.9479367 0.35227007 -0.11884415 1.2169341 -0.36123845
-0.33942664 -0.33665955 -0.43365642 -0.33704302 -0.27189973 -0.10234864 -1.6308203 -0.5658246
-0.21508497 -0.4803139 0.8743756 -0.36339608 -0.33864704 -0.5088006 1.3455045 -0.31265834

fc3.bias f4 [4]
00000000: fa8d 873d 7981 29be 5cd5 b73d b9ee abbe
0.06618877 -0.16553296 0.08976242 -0.33580568
